…
    training_states: experiments/HAT-L_SRx2_ImageNet-pretrain\training_states
  ]
  val:[
    save_img: True
    suffix: holo
  ]
  dist: False
  rank: 0
  world_size: 1
  auto_resume: False
  is_train: False

2023-10-27 11:25:00,779 INFO: Using GPU for HAT: 0 - NVIDIA GeForce RTX 2060
2023-10-27 11:25:00,780 INFO: Dataset [SingleImageDataset] - datas is built.
2023-10-27 11:25:00,780 INFO: Number of test images in datas: 1
2023-10-27 11:25:01,390 INFO: Network [HAT] is created.
2023-10-27 11:25:01,637 INFO: Network: HAT, with parameters: 40,698,863
2023-10-27 11:25:01,637 INFO: HAT(
  (conv_first): Conv2d(3, 180, kernel_size=(3, 3), stride=(1, 1), padding=(1, 1))
  (patch_embed): PatchEmbed(
    (norm): LayerNorm((180,), eps=1e-05, elementwise_affine=True)
  )
  (patch_unembed): PatchUnEmbed()
  (pos_drop): Dropout(p=0.0, inplace=False)
  (layers): ModuleList(
    (0): RHAG(
      (residual_group): AttenBlocks(
        (blocks): ModuleList(
          (0): HAB(
            (norm1): LayerNorm((180,), eps=1e-05, elementwise_affine=True)
            (attn): WindowAttention(
              (qkv): Linear(in_features=180, out_features=540, bias=True)
              (attn_drop): Dropout(p=0.0, inplace=False)
              (proj): Linear(in_features=180, out_features=180, bias=True)
              (proj_drop): Dropout(p=0.0, inplace=False)
              (softmax): Softmax(dim=-1)
            )
            (conv_block): CAB(
              (cab): Sequential(
                (0): Conv2d(180, 60, kernel_size=(3, 3), stride=(1, 1), padding=(1, 1))
                (1): GELU(approximate='none')
                (2): Conv2d(60, 180, kernel_size=(3, 3), stride=(1, 1), padding=(1, 1))
                (3): ChannelAttention(
                  (attention): Sequential(
                    (0): AdaptiveAvgPool2d(output_size=1)
                    (1): Conv2d(180, 6, kernel_size=(1, 1), stride=(1, 1))
                    (2): ReLU(inplace=True)
                    (3): Conv2d(6, 180, kernel_size=(1, 1), stride=(1, 1))
                    (4): Sigmoid()
                  )
                )
              )
            )
            (drop_path): Identity()
            (norm2): LayerNorm((180,), eps=1e-05, elementwise_affine=True)
            (mlp): Mlp(
              (fc1): Linear(in_features=180, out_features=360, bias=True)
              (act): GELU(approximate='none')
              (fc2): Linear(in_features=360, out_features=180, bias=True)
              (drop): Dropout(p=0.0, inplace=False)
            )
          )
          (1-5): 5 x HAB(
            (norm1): LayerNorm((180,), eps=1e-05, elementwise_affine=True)
            (attn): WindowAttention(
              (qkv): Linear(in_features=180, out_features=540, bias=True)
              (attn_drop): Dropout(p=0.0, inplace=False)
              (proj): Linear(in_features=180, out_features=180, bias=True)
              (proj_drop): Dropout(p=0.0, inplace=False)
              (softmax): Softmax(dim=-1)
            )
            (conv_block): CAB(
              (cab): Sequential(
                (0): Conv2d(180, 60, kernel_size=(3, 3), stride=(1, 1), padding=(1, 1))
                (1): GELU(approximate='none')
                (2): Conv2d(60, 180, kernel_size=(3, 3), stride=(1, 1), padding=(1, 1))
                (3): ChannelAttention(
                  (attention): Sequential(
                    (0): AdaptiveAvgPool2d(output_size=1)
                    (1): Conv2d(180, 6, kernel_size=(1, 1), stride=(1, 1))
                    (2): ReLU(inplace=True)
                    (3): Conv2d(6, 180, kernel_size=(1, 1), stride=(1, 1))
                    (4): Sigmoid()
                  )
                )
              )
            )
            (drop_path): DropPath()
            (norm2): LayerNorm((180,), eps=1e-05, elementwise_affine=True)
            (mlp): Mlp(
              (fc1): Linear(in_features=180, out_features=360, bias=True)
              (act): GELU(approximate='none')
              (fc2): Linear(in_features=360, out_features=180, bias=True)
              (drop): Dropout(p=0.0, inplace=False)
            )
          )
        )
        (overlap_attn): OCAB(
          (norm1): LayerNorm((180,), eps=1e-05, elementwise_affine=True)
          (qkv): Linear(in_features=180, out_features=540, bias=True)
          (unfold): Unfold(kernel_size=(24, 24), dilation=1, padding=4, stride=16)
          (softmax): Softmax(dim=-1)
          (proj): Linear(in_features=180, out_features=180, bias=True)
          (norm2): LayerNorm((180,), eps=1e-05, elementwise_affine=True)
          (mlp): Mlp(
            (fc1): Linear(in_features=180, out_features=360, bias=True)
            (act): GELU(approximate='none')
            (fc2): Linear(in_features=360, out_features=180, bias=True)
            (drop): Dropout(p=0.0, inplace=False)
          )
        )
      )
      (conv): Conv2d(180, 180, kernel_size=(3, 3), stride=(1, 1), padding=(1, 1))
      (patch_embed): PatchEmbed()
      (patch_unembed): PatchUnEmbed()
    )
    (1-11): 11 x RHAG(
      (residual_group): AttenBlocks(
        (blocks): ModuleList(
          (0-5): 6 x HAB(
            (norm1): LayerNorm((180,), eps=1e-05, elementwise_affine=True)
            (attn): WindowAttention(
              (qkv): Linear(in_features=180, out_features=540, bias=True)
              (attn_drop): Dropout(p=0.0, inplace=False)
              (proj): Linear(in_features=180, out_features=180, bias=True)
              (proj_drop): Dropout(p=0.0, inplace=False)
              (softmax): Softmax(dim=-1)
            )
            (conv_block): CAB(
              (cab): Sequential(
                (0): Conv2d(180, 60, kernel_size=(3, 3), stride=(1, 1), padding=(1, 1))
                (1): GELU(approximate='none')
                (2): Conv2d(60, 180, kernel_size=(3, 3), stride=(1, 1), padding=(1, 1))
                (3): ChannelAttention(
                  (attention): Sequential(
                    (0): AdaptiveAvgPool2d(output_size=1)
                    (1): Conv2d(180, 6, kernel_size=(1, 1), stride=(1, 1))
                    (2): ReLU(inplace=True)
                    (3): Conv2d(6, 180, kernel_size=(1, 1), stride=(1, 1))
                    (4): Sigmoid()
                  )
                )
              )
            )
            (drop_path): DropPath()
            (norm2): LayerNorm((180,), eps=1e-05, elementwise_affine=True)
            (mlp): Mlp(
              (fc1): Linear(in_features=180, out_features=360, bias=True)
              (act): GELU(approximate='none')
              (fc2): Linear(in_features=360, out_features=180, bias=True)
              (drop): Dropout(p=0.0, inplace=False)
            )
          )
        )
        (overlap_attn): OCAB(
          (norm1): LayerNorm((180,), eps=1e-05, elementwise_affine=True)
          (qkv): Linear(in_features=180, out_features=540, bias=True)
          (unfold): Unfold(kernel_size=(24, 24), dilation=1, padding=4, stride=16)
          (softmax): Softmax(dim=-1)
          (proj): Linear(in_features=180, out_features=180, bias=True)
          (norm2): LayerNorm((180,), eps=1e-05, elementwise_affine=True)
          (mlp): Mlp(
            (fc1): Linear(in_features=180, out_features=360, bias=True)
            (act): GELU(approximate='none')
            (fc2): Linear(in_features=360, out_features=180, bias=True)
            (drop): Dropout(p=0.0, inplace=False)
          )
        )
      )
      (conv): Conv2d(180, 180, kernel_size=(3, 3), stride=(1, 1), padding=(1, 1))
      (patch_embed): PatchEmbed()
      (patch_unembed): PatchUnEmbed()
    )
  )
  (norm): LayerNorm((180,), eps=1e-05, elementwise_affine=True)
  (conv_after_body): Conv2d(180, 180, kernel_size=(3, 3), stride=(1, 1), padding=(1, 1))
  (conv_before_upsample): Sequential(
    (0): Conv2d(180, 64, kernel_size=(3, 3), stride=(1, 1), padding=(1, 1))
    (1): LeakyReLU(negative_slope=0.01, inplace=True)
  )
  (upsample): Upsample(
    (0): Conv2d(64, 256, kernel_size=(3, 3), stride=(1, 1), padding=(1, 1))
    (1): PixelShuffle(upscale_factor=2)
  )
  (conv_last): Conv2d(64, 3, kernel_size=(3, 3), stride=(1, 1), padding=(1, 1))
)
2023-10-27 11:25:01,900 INFO: Loading HAT model from HAT-L_SRx2_ImageNet-pretrain.pth, with param key: [params_ema].
2023-10-27 11:25:02,222 INFO: Model [HATModel] is created.
2023-10-27 11:25:02,222 INFO: Testing datas...
